cpu_fcn.pt (torch_old, 82050 bytes, 5 tensors)

fc1.weight f4 [100, 100]
000000 53 4a aa 3d e7 b3 8f 3e 73 f9 4f 3d ea 90 9a bc
       0.083149575 0.28066942 0.050775003 -0.018867929
000010 82 75 82 3e 99 eb 3e be 98 c7 fa 3d 58 a7 05 3e
       0.25480276 -0.18644561 0.12245101 0.13052118
000020 d3 1a 91 be d8 ab c0 3c 2b 0a 4d be 53 2a d9 3d
       -0.28340778 0.023519441 -0.2002341 0.10603776
000030 8d cd 8e be 6f 0c 05 3d 7f 74 29 be 03 57 a0 3d
       -0.27891198 0.03248256 -0.16548346 0.07829096
000040 e5 e9 5c 3e 89 89 4e 3e d6 0e 18 bd 14 b2 39 3e
       0.21573599 0.20169653 -0.037123524 0.18134338
000050 26 e7 cc bd a9 e0 c9 bd 6c e5 45 be 74 d9 46 3e
       -0.100050256 -0.09857304 -0.19325799 0.1941889
000060 75 a6 c2 3d 73 e4 c9 3c 05 ac 5c 3e 80 07 9b be
       0.095044054 0.024645066 0.21549995 -0.3027916
000070 17 43 40 3e 5d a2 6c be e3 11 9a 3e 43 f0 58 bd
       0.18775593 -0.23108812 0.3009177 -0.052963506
000080 8a d0 5d be d2 7a 56 3c 86 e4 7c 3b 32 c9 29 3e
       -0.21661583 0.013090806 0.003858836 0.16580656
000090 17 9a ed bb a6 af 47 be c1 b6 23 be ba 12 7a be
       -0.007251035 -0.19500598 -0.15987684 -0.24421206
0000a0 2e de 10 be 80 6b 25 be 63 35 1a be 1d eb b3 3c
       -0.14147255 -0.16154289 -0.15059428 0.021962697
0000b0 d1 bd 80 be 9e b3 e3 3d df ae 50 3d db 89 61 3b
       -0.25144818 0.11118244 0.05094802 0.0034414444
0000c0 78 d1 7a be 64 8f 8d 3e 63 a2 14 3e ee 49 96 3d
       -0.24493968 0.2764846 0.1451507 0.0733832
0000d0 46 24 33 be 70 7a 10 be 7a e9 c4 bd b9 c7 d7 bd
       -0.17494306 -0.14109206 -0.096148446 -0.10536141
0000e0 fa 5d 14 3e 94 ee f9 bd fa 9a 4d be 0e a8 12 3e
       0.14488974 -0.12203708 -0.2007865 0.1432192
0000f0 bb 9f a0 bd 2e 5e 93 ba f9 0d a0 bc 86 8c 72 be
       -0.07842966 -0.0011243278 -0.019537913 -0.23686418
000100 57 49 85 3b a1 af 8f 3d 50 f4 e2 bc dd 6d 29 bd
       0.0040675807 0.070159204 -0.027704388 -0.04136454
000110 d0 5f 98 3e c8 76 06 bd fe ac 68 3c 24 23 09 bd
       0.297606 -0.032828122 0.014201401 -0.03348078
000120 da 67 3e 3e 09 59 e3 bd bc 6b cb 3d 6f 8c 21 be
       0.18594304 -0.111009665 0.09932658 -0.15776227
000130 50 dd 96 be 7a 7a 86 be 26 94 7f 3e 6e 0c 60 ba
       -0.29465723 -0.26265317 0.24958858 -0.0008546774
000140 98 04 99 be 2d 94 e0 3d 0d f5 70 bc 2a 06 48 be
       -0.29886317 0.10965762 -0.014706862 -0.19533601
000150 a3 d1 e6 3d fb f1 55 3e 73 ee 7a be e9 fe 32 bd
       0.11270454 0.2089309 -0.24505024 -0.043700133
000160 b8 cd a1 be c7 02 01 3d 5d 14 37 be 5a 64 7b be
       -0.31602263 0.03149679 -0.17878862 -0.2455
000170 56 01 8e 3c fe a7 33 3e 14 da 96 bd 0d 3f 71 3e
       0.017334621 0.17544553 -0.07365814 0.23559208
000180 0b 7e 6b be 43 7f b9 bd 65 ae 79 be d3 44 54 3e
       -0.229973 -0.09057476 -0.24382932 0.2072938
000190 6b dc 3a 3e 1d 80 89 be c3 47 10 be d7 b4 42 3d
       0.18248145 -0.26855555 -0.14089875 0.047535744
0001a0 8b fa 71 bc 4c b5 8f bd 27 ce 81 bd f0 70 2e be
       -0.014769207 -0.070170015 -0.063381486 -0.1703527
0001b0 2a a8 c1 3e e9 47 50 be cc 8f 03 3f dc 67 cb bd
       0.37823611 -0.20339932 0.5139129 -0.09931919
0001c0 d2 70 f1 3e a3 36 c3 3e 56 f6 2b be 80 c7 e2 bc
       0.47156388 0.38127622 -0.16793188 -0.02768302
0001d0 56 c6 31 3e 82 85 6e be 48 51 b2 bc 1a 81 c8 3e
       0.17360815 -0.23293117 -0.021767274 0.39160997
0001e0 8d 5c 9e 3b c6 36 8e be 26 d6 bc 3d 70 d8 c4 bd
       0.0048328103 -0.27776164 0.09220533 -0.09611595
0001f0 cf 9d 85 bd 2d aa 85 be 11 b3 29 3d 03 4e b6 3e
       -0.0652424 -0.26106396 0.041430537 0.35606393
000200 55 0c ac 3d dd e1 04 3f 48 12 c4 bd ce 5a 0e 3e
       0.0840079 0.5190714 -0.09573799 0.13901827
000210 09 e7 02 bd 7f e6 a7 3e e3 ab 53 be c8 a1 c5 bd
       -0.031958614 0.32793042 -0.20671038 -0.09649998
000220 51 d7 b4 3e 1b 25 c4 3e f6 bd 4a 3e 5d 9f 2b 3e
       0.35320523 0.3830956 0.19799027 0.16760011
000230 68 66 79 bd 77 60 17 be e0 52 d6 3d 54 58 ab 3d
       -0.060888678 -0.14782892 0.10465026 0.08366457
000240 57 e7 d8 3e 12 39 59 bc 8a e0 f3 3c 59 dc e7 3d
       0.42363998 -0.0132582355 0.029770155 0.11321325
000250 af 6e e2 bc 90 a4 8d be 93 ed a1 3d 6b 90 06 be
       -0.027640669 -0.27664614 0.07906642 -0.13141029
000260 66 56 24 3e 33 20 3a 3d 29 bc 80 bb e2 6e e5 3d
       0.16048583 0.045440864 -0.0039286804 0.1120279
000270 02 b4 ba 3d 92 1e 83 3e e8 07 a1 bd a0 d7 3a be
       0.09116365 0.2560926 -0.07862836 -0.18246317
000280 50 cd 99 bc 99 de 85 be 7a 38 be 3d cb f4 b4 3e
       -0.018774658 -0.2614639 0.09288116 0.35343012
000290 7e 40 20 3d 0d 7f c5 be ab 4b b4 3e ee a2 ac be
       0.039124005 -0.38573495 0.3521398 -0.33718055
0002a0 a8 7a a4 be 62 df b7 3e f3 54 4f 3c 06 5d 57 3e
       -0.3212483 0.35912615 0.012654531 0.2103158
0002b0 4d d6 be bd 32 4c 21 be 94 4e be bd 43 e9 a1 3d
       -0.093182184 -0.15751722 -0.09292331 0.07905819
0002c0 4b 50 da 3c f9 01 15 3e 5f 2e ce be 61 41 83 3d
       0.026649615 0.14551534 -0.40269753 0.064089544
0002d0 29 62 04 3d e6 fc ff 3c 26 6e b8 3c 76 90 26 3e
       0.032320175 0.031248521 0.02251346 0.16266045
0002e0 78 f5 be bd 73 7a d0 3c 7a 13 63 be 26 dc 51 3e
       -0.09324163 0.025449013 -0.22175398 0.20494136
0002f0 bc 5f e1 bb 0f c5 3b be ea 8f a6 3e 42 ce 2a 3e
       -0.0068778675 -0.1833689 0.32531673 0.16680244
000300 6f 28 34 be 5d f7 f8 3d b7 6a 05 3e 88 b4 9c be
       -0.17593549 0.12156556 0.1302899 -0.30606484
000310 3e b6 05 be be 72 af 3d f9 94 be bd b6 ba 35 be
       -0.13057801 0.08566807 -0.09305758 -0.17747006
000320 f0 2a 2c be 17 a5 ab 3e 9d c0 9a 3d 2a f4 ce 3c
       -0.16813254 0.3352439 0.07556269 0.02526291
000330 ab d9 a1 3e 7a 2b 2a be b3 9e 74 bb c8 ca 76 be
       0.3161138 -0.16618147 -0.0037326037 -0.24100792
000340 ab d8 7a be 80 cd 4b 3d 44 59 60 be 98 28 90 3d
       -0.24496715 0.049756527 -0.21909052 0.07038993
000350 1d 87 9a be cc a0 42 3e 8c 7b 23 3b e5 56 72 3e
       -0.30181208 0.19006652 0.0024945466 0.2366596
000360 8c aa 99 3e b1 4c b9 bd aa 71 85 3d 51 a9 1a bd
       0.3001293 -0.09047831 0.0651582 -0.03775913
000370 1d fb 64 3e 87 8d a0 bd 83 99 b6 3d 8c 5a cc 3e
       0.22361417 -0.07839494 0.08915999 0.39912832
000380 7d 7e d5 3e 89 bc 2d bd 80 bb ab bd 5e 90 7d be
       0.41698065 -0.04241613 -0.08385372 -0.24762103
000390 ae 6d 94 3d a0 f1 c5 bb 88 4b 52 3e 06 8d 86 3d
       0.07247482 -0.006040767 0.20536625 0.06569867
0003a0 a6 66 e5 bd c0 01 74 3e 93 f1 8c 3d 4d 49 42 3d
       -0.11201219 0.23828793 0.06882014 0.047433186
0003b0 65 6f 58 bd 39 27 40 be b3 4d e9 bb 31 77 47 3e
       -0.05284061 -0.18764962 -0.007119858 0.19479062
0003c0 fa c9 0e 3e 0f e7 a5 be a6 5b ac 3d ea 51 2a bd
       0.13944235 -0.32402846 0.08415918 -0.041582026
0003d0 0b ec 97 be 0d fd 07 bb 06 98 4a 3c b2 3f 89 bd
       -0.29672274 -0.0020750195 0.012365347 -0.06701602
0003e0 e8 40 28 3e 05 8c a1 3e e3 cd a2 3c 0a 98 a3 3d
       0.1643101 0.3155214 0.019873565 0.079879835
0003f0 29 d3 a6 be 29 24 52 3d 0f f5 fb 3d 03 b0 8a be
       -0.32582977 0.051304016 0.123026006 -0.2708741

fc1.bias f4 [100]
000000 1e 8a 76 be 14 8b b0 3e 3d b3 7d be 65 2b 73 be
       -0.24076125 0.34481108 -0.24775405 -0.23747022
000010 82 c5 d4 bd a4 2d 3c bd d4 2f d1 3d af 18 a8 3d
       -0.10389234 -0.045941964 0.102142006 0.08207833
000020 ff 3a 3e 3e 84 d6 36 be 3b 75 d3 be 9a a9 c6 3e
       0.18577193 -0.17855269 -0.41300377 0.3880127
000030 64 d4 99 3e fd a0 94 be 05 99 c8 3d 4c 2b 01 3d
       0.30044854 -0.29029074 0.09794811 0.03153543
000040 21 5f bd be 7d b6 e3 bc 46 4a d2 be aa c2 9c 3e
       -0.3698664 -0.027796978 -0.4107229 0.30617267
000050 68 39 cf 3e 28 29 7e 3e 1b b0 d1 be 48 4b 47 3e
       0.40473485 0.24820387 -0.4095467 0.19462311
000060 76 14 81 3d 50 e2 13 be d6 0c 59 3e e3 31 97 be
       0.06302731 -0.144418 0.21196303 -0.29530248
000070 09 1d 7e be b2 43 8c be 14 70 9e be 8d 4c 39 3d
       -0.24815764 -0.27395397 -0.30944884 0.04523902
000080 72 a5 71 be f8 4a 34 3e b4 e2 4b 3e 96 67 78 bd
       -0.23598269 0.17606723 0.19910699 -0.060645662
000090 2d 32 3c b9 b0 00 ca 3e 4d bb 13 3e 17 0a 66 be
       -0.00017947769 0.3945365 0.14426918 -0.22464786
0000a0 b7 1c bc be 3a 2f 6e 3e d8 b2 8c 3d 83 4f 16 3d
       -0.36740658 0.23260203 0.06870049 0.036696922
0000b0 a5 19 57 be 23 f4 68 3e 08 6a 68 be 4c 91 08 3f
       -0.21005876 0.22749381 -0.22696698 0.53346705
0000c0 5b 7b 20 bc 6c 25 c9 3c ff 9e d2 3e 55 54 9f 3e
       -0.009795035 0.024553977 0.4113693 0.31119028
0000d0 2e 0f 02 bf b5 35 36 3e 7a 44 88 bd 5e 7b cc 3e
       -0.5080441 0.17793925 -0.06653686 0.39937872
0000e0 e5 6d bb be 0f 41 82 be b6 1d 71 bd a8 61 91 3e
       -0.3660728 -0.2544026 -0.058866225 0.28394818
0000f0 1f a2 de 3d 83 cf c5 be bc 2c 8f be a5 5f ff be
       0.10870766 -0.3863488 -0.27963817 -0.49877658
000100 6b be 47 be be 30 03 be d4 ce 9d 3d b9 3d cb 3e
       -0.19506232 -0.12811562 0.07705465 0.39695528
000110 f5 75 df 3e 9d b1 90 3e ba cb 4b bd 02 54 dd be
       0.43644682 0.28260508 -0.049754836 -0.43228155
000120 b2 4f b3 3e 28 81 8a 3d 40 3e 7c be 1b 46 c2 bd
       0.3502174 0.06762916 -0.24633121 -0.09486028
000130 87 52 4a 3e 9c 0c cc be 94 80 76 3b c4 ca 4c 3e
       0.19758044 -0.3985337 0.003761326 0.19999224
000140 3a ba b6 be d2 2f fb 3d e6 3e 38 3d e8 64 62 be
       -0.35688955 0.122649804 0.04498186 -0.22108805
000150 3c bf b2 3e 1a ca 3d 3e d6 0e b3 be 4f 38 a3 3e
       0.34911525 0.18534127 -0.34972256 0.31878898
000160 87 39 a7 3e 19 54 6e 3e 04 ca 66 be ee 66 c8 3e
       0.32661077 0.23274268 -0.22538 0.3914103
000170 04 d2 0b be 6b 12 d5 3e 43 6b 80 be 41 85 99 3e
       -0.13654333 0.41615614 -0.25081834 0.29984477
000180 cb 45 61 be 68 d9 7b bd cd fc b2 be a8 59 09 bf
       -0.2199928 -0.06148663 -0.34958497 -0.5365243

fc2.weight f4 [100, 100]
000000 47 5f d3 bd fc 65 ff be b1 06 ab bd d1 9f 63 3e
       -0.10320907 -0.49882495 -0.08350886 0.22228934
000010 9e 8a 5e 3e de 0d ad 3d 93 68 22 be 50 52 d1 be
       0.21732566 0.084499106 -0.15860204 -0.40883112
000020 a7 1c 77 be c1 4b 4d bd 50 4d 95 3c fd 7a 32 3e
       -0.24132024 -0.050121073 0.018225342 0.17429729
000030 e5 19 86 3c 7d 18 a1 3e 01 58 81 3d e6 67 31 3e
       0.01636977 0.31463996 0.063156135 0.1732479
000040 25 f8 59 3e a3 29 d6 3e 9c 44 4c 3e ca b0 be 3d
       0.21286066 0.4182864 0.19948047 0.093110636
000050 4e 6d c5 bd 24 7a 33 bc 5d cf 85 3e 84 e7 23 3e
       -0.09639989 -0.010954414 0.26134768 0.16006285
000060 c6 a0 0e 3d af 3f 8c 3b f9 3d 49 3d 37 6e 67 3e
       0.034821294 0.0042800526 0.049131367 0.22600637
000070 67 bb bf be 59 26 5c 3e d6 56 17 3d 8a 8c 27 3e
       -0.37447664 0.21499003 0.036948048 0.16362205
000080 0d 33 9f 3d 0e 34 8e 3c e0 02 6b bd 40 a1 1e b8
       0.07773409 0.017358806 -0.05737579 -3.782031e-05
000090 5d 76 98 be b1 86 da bd 7e cd 4d 3e 93 b1 57 3e
       -0.29777804 -0.106702216 0.2009792 0.21063833
0000a0 79 f4 a2 3d 3d fb 89 be 0f ce 0f be a0 73 88 3e
       0.07956786 -0.26949492 -0.14043449 0.26650715
0000b0 4f 96 8a be d5 0c c1 3c 6a 5e b2 3e 6c 87 ea be
       -0.270678 0.02356569 0.34837657 -0.45806444
0000c0 15 f6 a4 be 5e af 1f bc db db 91 bc d1 bc 06 bd
       -0.32218996 -0.009746401 -0.01780503 -0.032894913
0000d0 3f e1 0b 3e 13 af 02 be a1 eb 10 3c 71 79 74 be
       0.13660143 -0.12762098 0.008845241 -0.23874451
0000e0 7c c7 de 3e 9d a9 9e bd 84 82 24 be bf 28 d2 3d
       0.4351157 -0.07747195 -0.16065413 0.10261678
0000f0 44 4a a7 bd ac 10 0d bd da 9b 00 3e 3b 79 d2 3e
       -0.08168462 -0.034439728 0.12559453 0.41108117
000100 02 a2 91 3d 74 8e 04 3e 3a 75 60 3d b7 e9 6a be
       0.07110979 0.12944967 0.054799296 -0.22940718
000110 de 8f c8 be 2d 86 11 be 09 c8 f1 3d e4 e8 45 3e
       -0.39172262 -0.1421134 0.11805732 0.19327122
000120 8a be 81 be 07 d5 37 be 6a 53 f2 3e 0c 1a a0 3d
       -0.25340682 -0.17952357 0.47329265 0.07817468
000130 22 27 a6 be ec 9b 9a 3e 3d 0d ca 3b 09 ea 91 be
       -0.3245173 0.30197084 0.006166129 -0.28498867
000140 0a f0 64 3e 3f 1f 3a bc bb c0 8d 3d 0d 80 9b 3d
       0.22357193 -0.011359989 0.06921526 0.07592783
000150 0a 9b 98 3d 69 61 f8 3b 26 04 c5 3d 99 bb ea bc
       0.07451446 0.0075799716 0.09619932 -0.028653907
000160 56 a9 4b 3c fa fd 64 be a3 d9 6e bd b8 40 76 bb
       0.01243051 -0.2236251 -0.058313023 -0.0037575196
000170 54 a1 93 3d 39 4b 37 be c8 8b 5f 3e 9e bb d4 be
       0.07208505 -0.17899789 0.21830666 -0.4154939
000180 79 d5 55 3e 59 cd 21 3d 7c e3 a5 3e ef 41 ea 3d
       0.20882215 0.039502475 0.3240012 0.11438357
000190 78 7d 9c 3e 6c f9 b2 bd 44 44 27 3e f6 24 b7 3e
       0.30564475 -0.0873898 0.16334635 0.35770386
0001a0 a7 71 cf bd 21 b5 88 3d d3 65 07 3c 57 8f 11 be
       -0.10129099 0.066751726 0.008264023 -0.14214836
0001b0 1d 48 b9 bb f2 40 1d 3e c6 5a a9 be 07 95 58 3e
       -0.0056543485 0.15356806 -0.33077067 0.211506
0001c0 20 64 5b be 2d 3e 38 be 67 22 fd bd 40 04 28 3d
       -0.21424913 -0.17992468 -0.12360077 0.041019678
0001d0 c9 5b 14 bc 5e 8d a0 3e e7 d4 18 bd dd d8 48 be
       -0.009055086 0.31357855 -0.037312414 -0.19613977
0001e0 f7 8c 99 bc 9d f1 b8 bd 24 f1 9e 3e aa 11 c1 3d
       -0.018743975 -0.09030459 0.3104335 0.09427197
0001f0 ab 0f 43 be 4c b5 e3 3c 19 54 fe bd 39 cb 05 3e
       -0.19048946 0.02779641 -0.12418384 0.13065805
000200 1d ac af bd f2 c3 13 be 32 a1 30 3e f9 26 57 bd
       -0.0857775 -0.14430216 0.17248991 -0.0525274
000210 8b 26 4b 3e 19 0a ab be 4a f4 17 3e bd 73 85 3c
       0.19838922 -0.3340614 0.14839283 0.01629054
000220 c9 5d b5 be d6 49 09 3e f1 d3 40 be 44 0b 23 bd
       -0.35423115 0.13407072 -0.18830849 -0.039805666
000230 05 24 a4 be 5f 7c 17 bf 8c 25 1a 3c 72 93 eb bd
       -0.3205873 -0.5917415 0.009408366 -0.11502732
000240 2d 93 af 3d 81 a8 48 3e 2b 6f 1d bd dc 99 a5 be
       0.085729934 0.19595529 -0.038436096 -0.32343948
000250 44 8c e8 bd 1f 67 9d bd 8e 1c d9 bd 5f 57 81 be
       -0.113548785 -0.076856844 -0.106011495 -0.2526197
000260 e5 a6 bf bc 69 4e c2 bc 5e 7e 25 3e 39 2b 84 be
       -0.023395011 -0.02371903 0.16161487 -0.25814226
000270 84 1f 5f bc f5 a1 40 3e 14 43 df 3e 32 c1 2b be
       -0.013618354 0.18811782 0.43605864 -0.16772917
000280 25 96 2d be b5 9f 5a bc 05 d2 1d be 76 2b e5 3e
       -0.16951807 -0.013343741 -0.15412147 0.4475972
000290 0a e8 a4 3c ee 0a dd bd 7d 42 58 3d c2 6c 7d bd
       0.020130176 -0.107931 0.052797783 -0.061871298
0002a0 f1 91 cf 3d 4f 9f f2 bc 9b 64 2a 3d f4 18 b4 3c
       0.10135258 -0.02961698 0.04159985 0.021984555
0002b0 bb 4f 21 be ac 8f 54 3e aa d4 d9 bc 9b 46 1a 3e
       -0.15753071 0.20757931 -0.026590664 0.15065996
0002c0 3d 0b e0 3e 38 7c 6e 3c 35 1b 0b 3e b0 5e 0f 3e
       0.43758574 0.014555983 0.13584597 0.14000964
0002d0 9b 8d a3 3d 80 d5 97 3e a3 11 4b bd fb 99 3c bd
       0.079859935 0.29655075 -0.049577367 -0.046045285
0002e0 bc 43 17 be 85 82 91 bd dd 27 77 bc 32 9f 96 3e
       -0.14771932 -0.07104973 -0.015085188 0.2941833
0002f0 67 8f 90 3e 31 e1 40 be 8c 72 ee 3d e8 03 98 bd
       0.28234407 -0.18835904 0.11642942 -0.0742262
000300 66 22 ae be 7a 26 5f be 81 15 af 3d f0 3b 82 bd
       -0.3401062 -0.21792021 0.085490234 -0.063590884
000310 3f 14 92 3c 7c 4c 88 be f6 88 5c bd e3 ba 1c 3e
       0.01783192 -0.26620853 -0.053841554 0.15305667
000320 47 0c 0f 3e 2f d4 a8 3c 81 39 2a 3d ae bd 35 bd
       0.13969527 0.02060899 0.041558746 -0.044370346
000330 5e f3 61 bd 93 e1 a7 3d f0 25 b9 bd 92 63 01 be
       -0.055163734 0.08197322 -0.09040439 -0.1263564
000340 ee 24 3f bd 00 04 5c 3d e0 aa 4d be e4 2e 53 bd
       -0.04666608 0.053714752 -0.20084715 -0.05155839
000350 bf a9 92 be 09 fc c6 3d 6e 6a 13 be 1a 38 7c 3e
       -0.2864513 0.09716041 -0.14396068 0.24630776
000360 f7 23 6a bc 7e b8 06 3e fa 6e 32 3e 62 af b3 bd
       -0.014290801 0.13156316 0.17425147 -0.08773686
000370 6f 79 e8 bd 0a e2 41 be 2d 2a 80 3c 98 3d 83 3e
       -0.113512866 -0.18933883 0.015645111 0.2563293
000380 bf 7b 22 bd a6 7a 71 be 22 95 5c 3e 07 59 64 3c
       -0.039668795 -0.23581943 0.21541265 0.013937241
000390 99 52 b3 bb 37 6a 90 3d 10 14 b6 3e 46 ab c5 bd
       -0.005472493 0.07051509 0.3556218 -0.096518084
0003a0 a0 19 9e 3e 89 fe 8b be f9 83 5f 3e 9c 62 97 bb
       0.30878925 -0.27342632 0.21827687 -0.0046199095
0003b0 a7 ce bd be 12 e2 a9 be eb 48 32 be f1 c6 d5 3d
       -0.37071726 -0.3318029 -0.17410628 0.10438336
0003c0 52 96 07 bc 82 ec da bd d3 1f 5e 3e 3f ef 88 3e
       -0.008275585 -0.106896415 0.21691827 0.2674503
0003d0 b1 51 2c be 8a 70 0e 3e 37 c7 ef bd 5e 2d 4d be
       -0.16828038 0.13910118 -0.11707919 -0.20036837
0003e0 fb b2 9f 3d db f5 ed bd 42 22 a4 bc ba ab 9c bd
       0.0779781 -0.11619159 -0.020035867 -0.07649942
0003f0 87 d5 bb 3d f6 d5 8b be 22 57 21 be 0d 3f 84 bd
       0.091715865 -0.27311677 -0.15755895 -0.064573385

fc2.bias f4 [100]
000000 72 8a bd be 98 89 1e be 59 72 dd bd 36 1a dd be
       -0.37019688 -0.15482175 -0.10812826 -0.4318406
000010 3c 70 8b 3d df 54 3d 3e 78 e9 05 bd 67 8f 80 3e
       0.068085164 0.18489407 -0.032693356 0.25109407
000020 4e ce fa bd c8 f9 0d be 92 ad b2 bd b8 d5 ef bd
       -0.12246381 -0.13864815 -0.08724512 -0.117106855
000030 cf 2d c9 be 48 95 13 be 59 c5 a4 be 19 a8 b2 bc
       -0.39292762 -0.14412415 -0.32181814 -0.02180867
000040 14 57 82 3e 79 f6 ac bd b1 4b 67 be c3 3f 61 3d
       0.2545706 -0.084454484 -0.22587468 0.05499245
000050 36 df a5 bc 4c ab 93 be 7b 2b 72 3e a0 b0 95 3d
       -0.020248037 -0.28841627 0.23649399 0.07309079
000060 8f b0 2b bd d4 60 ff 3e 41 f9 32 3e 5f f8 1b 3e
       -0.041916426 0.49878561 0.17477895 0.15231465
000070 b5 51 5a 3c 82 f8 9a 3d fa 62 d0 be 85 c4 1d 3e
       0.013325145 0.0756693 -0.40700513 0.15406998
000080 93 0a ac be df a9 2a be 2a f0 94 3d 5c f8 4a 3e
       -0.33601817 -0.16666363 0.0727237 0.19821304
000090 76 ad 13 3e e9 44 86 3d 02 b3 06 3e 43 e2 9c be
       0.14421639 0.06556112 0.13154224 -0.30641374
0000a0 6a fe f4 bd 6f 52 a9 3e 47 df bc be 8b c4 e5 3d
       -0.11962588 0.33070704 -0.36889097 0.11219128
0000b0 ad 66 24 be cc c7 ea bd 6b 6f 33 bc 93 de 39 3e
       -0.16054793 -0.114638895 -0.010951857 0.18151312
0000c0 06 9b 75 be 09 73 be 3e 53 b1 99 be f4 63 a7 3e
       -0.23984918 0.3719714 -0.300181 0.32693446
0000d0 00 de 1d 3e d4 f4 be be 2f 87 f6 bd 8c 5a a4 3e
       0.15416718 -0.37296164 -0.12037503 0.32100332
0000e0 f0 5a 8b be 97 f7 ba bd 73 9c 41 be 39 05 d6 bc
       -0.27217817 -0.09129255 -0.18907337 -0.026125537
0000f0 cc ef 46 3e a6 01 e8 bd 13 5f c7 bc de 7b 1e be
       0.19427413 -0.113284394 -0.024337327 -0.15476939
000100 e3 a3 e5 3e 42 cb da bd 01 d0 07 be e7 94 55 be
       0.44851598 -0.106832996 -0.13262941 -0.20857583
000110 9e eb 9b bd 46 a4 0e 3f 9f f5 9e 3e f8 ea 4b 3d
       -0.076133 0.5571941 0.3104677 0.04978463
000120 45 c7 91 3c 45 c1 16 be a3 42 8a be 2e 35 36 3e
       0.017795214 -0.14722164 -0.27003965 0.17793724
000130 69 3d 68 be 9b c0 93 be c3 77 e5 3e c9 34 7a bc
       -0.22679676 -0.28857884 0.44817933 -0.015271374
000140 d7 93 ae 3e ae cc 02 be fc 55 08 3d 43 d0 4d 3d
       0.34097168 -0.12773392 0.033285126 0.050247442
000150 5a 04 87 be 25 e7 44 bd fa cd 81 3e 4d d9 ff be
       -0.26370507 -0.048072 0.2535246 -0.49970475
000160 1a 3f f2 bc ab a7 86 bb 2a fb d4 be 89 43 9a bd
       -0.029571105 -0.004109343 -0.41597873 -0.075324126
000170 0d f9 98 be ff 37 12 3e 6a 0c 55 3e 93 52 bc 3d
       -0.2987751 0.14279173 0.20805517 0.09195437
000180 dc c9 df bd 8c bc ae be d3 c7 a1 3d 96 0b b7 bd
       -0.109271735 -0.34128225 0.078994416 -0.08937757

out.weight f4 [1, 100]
000000 47 e2 75 3d d0 84 de 3c 85 cb 39 3c b9 8b 06 3e
       0.060030248 0.02716294 0.011340027 0.13139237
000010 e2 f5 67 bd 5b 12 94 3c 7a 86 4c 3d 10 0e 81 3d
       -0.056630976 0.018075159 0.049932934 0.0630151
000020 18 38 bd 3c a7 20 33 bd 82 ba 09 be 49 02 d1 bc
       0.023098037 -0.04373231 -0.13450053 -0.025513785
000030 a3 6d 24 3e c1 22 8f 3c 78 4d 15 3e 60 6b d6 bb
       0.16057448 0.017472627 0.14580333 -0.006543562
000040 87 aa b4 3d fe 73 a8 bd fe d0 ee 3c 4c c9 a8 3c
       0.08821588 -0.08225249 0.02915239 0.020603798
000050 b6 e1 b6 3b 5f ee 9a 3d 74 55 28 3c 4e 49 17 bd
       0.005581106 0.07564997 0.01027428 -0.036935143
000060 ba f8 48 3d aa 19 ca bd 88 02 29 bd b6 76 8f 3c
       0.04906533 -0.09868176 -0.04126218 0.01751266
000070 7b 97 84 bd a6 fd 81 3d c0 85 33 bd 5b ef ea 3c
       -0.06474205 0.06347208 -0.043828726 0.028678587
000080 76 75 84 bd a1 5b 5c 3c 84 aa 1c bc a5 20 2d 3c
       -0.064677164 0.01344958 -0.0095621385 0.010566865
000090 5d 9e 4e bc 76 8d 91 bd 8d 66 02 3b 50 b7 7f 3d
       -0.012610999 -0.0710706 0.001989755 0.06243068
0000a0 e8 36 60 3d 4a 42 a6 3d 05 ba 29 bd 70 c2 65 3d
       0.054739863 0.081181124 -0.041437168 0.056093633
0000b0 3a 4d 90 bd ed 89 89 bd c7 4b 92 3c 9c 4b 66 3c
       -0.0704598 -0.067157604 0.0178584 0.014056113
0000c0 c0 18 4c 3d cf 4e 88 bd 4f d3 99 bd 20 f6 d2 bd
       0.04982829 -0.066556565 -0.07511007 -0.10300851
0000d0 0f ad 25 bd 1e f8 b6 bc ba 9f b2 bc f2 5a 13 bd
       -0.040448245 -0.022335108 -0.02180468 -0.035975404
0000e0 89 a7 e9 bd 03 97 87 3d a7 27 7c 3c 53 02 1f 3d
       -0.11408908 0.066206 0.015390313 0.038820576
0000f0 39 9d d0 3d 9b 1f 94 3c 75 59 34 3d 05 33 25 bd
       0.10186238 0.018081477 0.044030625 -0.04033186
000100 38 c7 94 bd 76 f9 55 bd 4e 16 37 bd db fb 8b 3d
       -0.072645605 -0.052239858 -0.044699006 0.06835147
000110 e1 30 5a 3a 8f 15 09 be 80 e1 c4 bd 0e 9b 88 3d
       0.00083233236 -0.1338713 -0.09613323 0.06670199
000120 95 fd 51 3d 96 75 ec 3c 24 a2 09 3d 13 82 83 bb
       0.051267225 0.028864663 0.033601895 -0.004013309
000130 79 a2 90 bd 69 8a 59 bd 86 5d 1d be 75 98 a3 3d
       -0.07062239 -0.053110514 -0.15367708 0.07988063
000140 1a 48 1e 3e 4e c2 f5 bc 99 44 a8 bd ec bf fb 3a
       0.15457192 -0.029999878 -0.08216209 0.0019206977
000150 94 f4 08 bd 65 ab 5d bd 8f d2 00 be f4 41 1d 3d
       -0.033436373 -0.054118533 -0.12580322 0.038392976
000160 44 31 ae 3d e8 b1 53 b9 bd 30 91 3d bc b4 e9 3c
       0.085054904 -0.00020188803 0.07089374 0.028528564
000170 c2 22 77 bd 38 33 4d 3c 5d 2f ce bc 1b 1a 80 3b
       -0.060335882 0.0125244185 -0.025169069 0.003909362
000180 85 2a 1d 3d 7a 31 ed bc a5 fa 98 bd 82 81 09 3d
       0.038370628 -0.028954256 -0.07469682 0.033570774
